results/14306500/14306500_hybrid.pth (torch, 7267 bytes, 5 tensors)

hydro.uh1_conv.weight f4 [1, 1, 30]
00000000: bd45 893c 4ac1 283d 6249 203c fcd7 8d3c
00000010: 493e 173d 61d6 093d 9b1d 3f3d ff4f 613d
00000020: 806a 8b3d 5b31 a93d f14b de3d db80 dc3d
00000030: 1545 f73d cd63 213e b736 513e a315 2a3e
00000040: b42b 203e c69f 413e 02b6 3b3e bf1f c23d
00000050: 5074 6b3c 77ce 4abe 1b65 55be 1d59 043e
00000060: 20ca 08bc 1bee 32bb f456 573d 2c51 8e3c
00000070: ad5d 41bd cf83 8ebc
0.016756887 0.04119996 0.009783121 0.017314903 0.036924634 0.033651713 0.046659093 0.05500793
0.06807423 0.08261367 0.108543284 0.10766765 0.12073723 0.15760727 0.20431028 0.16609816
0.15641671 0.18908605 0.18331149 0.09478711 0.014370993 -0.19805323 -0.2083935 0.12924619
-0.008348972 -0.0027302566 0.05257316 0.01737269 -0.047208477 -0.017396836

hydro.uh2_conv.weight f4 [1, 1, 30]
00000000: 39bd 84bd 62f2 8abc 5606 f6bc afb9 06bc
00000010: 5b89 b73c eca3 e13c ab0e 403d e177 753d
00000020: e96f 9c3d 6510 bf3d 3862 f73d 358a f73d
00000030: 64a4 093e 8484 2f3e ed2f 5f3e dcb3 373e
00000040: 624a 2d3e 0426 4e3e 0b94 473e c179 d83d
00000050: 3c7e c93c d909 41be f250 4cbe 5ec2 0c3e
00000060: 5802 47ba 1dca 8b3b 71b3 713d e2ba be3c
00000070: 5c2c 2bbd 68c2 4bbc
-0.06481404 -0.01696128 -0.030032318 -0.008222981 0.022404363 0.027543984 0.04688899 0.05992878
0.07638533 0.09329299 0.120792806 0.12086908 0.13441616 0.17140394 0.21795626 0.17939705
0.16922906 0.2013169 0.19490068 0.10570098 0.024596326 -0.18851413 -0.19952753 0.1374602
-0.0007591597 0.004266037 0.05900902 0.023282472 -0.04179035 -0.012436487

conv1.conv.weight f4 [16, 6, 10]
00000000: b7f8 27bd f2a6 a6bd e085 633e 214a 393e
00000010: f203 08bc f531 0d3e be28 8c3e 1ebf b33d
00000020: c7d3 6abc 34ba 83be 0838 533b 64ee 37be
00000030: 6ea4 1cbe 422b 15be 99e2 6abd 9aa2 47be
00000040: 44f8 d9bd 29d9 8ebd cef2 98be e1e2 bbbe
00000050: 89a5 053d 8d36 80be 6cf6 073d 01e0 38be
00000060: 9830 69be fd84 56bd d971 89bd 61a5 5cbe
00000070: c002 90be 1f23 b9be ef40 a3bd e2f7 48bd
00000080: 8491 64be 379c 70be cda6 82be 190b 7c3b
00000090: 2dad 43bc 3ec0 16be 7fac e1be 9d55 0cbf
000000a0: 1073 733d 48df fbbc a0c3 f1bd 9578 99be
000000b0: f7de 043d e91c fa3c 7872 0ebb c7d9 69be
000000c0: 0111 1dbe 31b4 1ebe a6ba 58bd a382 e53d
000000d0: e3eb 0a3e f925 3bbe acce 83bd 2166 7a3d
000000e0: 033a 5a3d a8f3 873d fa9c a5bd 7f33 b1bd
000000f0: da70 3cbe c940 22be aa1c eebe 1122 59be
00000100: 13cd 98be 8c8c 8bbe bedc a3bd 8dd4 f2bd
00000110: c450 8abe dd2d c8be 208b 193e 351c dfbd
00000120: d1a7 0b3d 18b6 bbbd 360a 133d cf0a dcbc
00000130: 4f5f 263e 2013 5bbe b1cd 1fbe 2e51 f1be
00000140: 2939 84bd b67b 8bbd d03a 78bd 86a2 8cbd
00000150: 1067 f4bd 7f8a b93d dbed 8dbd 16d2 9d3d
00000160: 815d 653c 80f7 293d d6d7 5f3d ad72 023d
00000170: bc3e 4ebc 23c7 423d 9f5b be3d aa3f 423d
00000180: 31be c83d dbbe 81be fac3 5ebe b4df 8ebe
00000190: 8c4b ff3d 47d1 85be 4e9a 133d 0778 b73d
000001a0: ccc1 f43c a4bb 0d3e a2a3 03bd 32c5 813d
000001b0: 94ed 0dbe 3a8b eabd 0e8e a1bc 62ac ef3e
000001c0: 1165 493e 48ff d6bd 8099 b2bd 30ed 80bd
000001d0: 2bc1 6dbe 3f2f f53d 23fe 95bd bab8 e0bd
000001e0: 88cf 743e cef9 493e 7081 0c3e 141d 393e
000001f0: 1c2d 94bc 0458 69bd 0958 643d 8191 813d
00000200: 1e8b 6d3e ecde 743e cb27 c5bd 736f 40be
00000210: 78a9 97be a2e8 12bd c876 45be 194f 32be
00000220: fd63 f3bd 8ca3 0d3b 3742 0b3d 1620 893e
00000230: fda7 6fbe d315 b3be 5cab f6bd a0d1 b3be
00000240: 7b7f 97be ca25 75be fc21 e5bd 4cae 5cbe
00000250: 7df9 8cbe b6e9 9abe 97d3 a2be 469a 09be
00000260: f779 2dbe c5a6 8ebe d818 4bbe b57b 2fbe
00000270: 5d93 b7bc d93c 253d 0c47 c93c 7993 fa3e
00000280: 8510 01be 3650 97bd 5f4f 49bd 1260 f9bc
00000290: db96 00be b661 00be 883b 0abe 39b4 913d
000002a0: a528 cebd 9559 9e3d ed1d 9b3c 52a5 5cbe
000002b0: d385 c3bc f643 97bd c33c 993c ae21 d33d
000002c0: 63b0 c8bd a03d 0e3e c8dd 2c3d f201 bf3d
000002d0: d7d4 b8bd 4b3c 4abe 3b12 2f3d cf9b 59be
000002e0: 6c28 8abd 1552 14be 8095 8fbd 03b0 b9bb
000002f0: 5283 45bd c83f 2bbe e0c2 173e 0ff2 a63d
00000300: 6274 0dbd 30e8 8e3d 53f0 1c3e 1ace 413e
00000310: 473f 263e b571 0f3e a3a1 863d b3fe 883d
00000320: f41e 993c e531 2abd 73e6 1c3d 732a 71bc
00000330: 0fe1 bb3d 7109 413e d162 b7bc b13a 9f3d
00000340: aea1 543e ae49 d13c fd23 0d3d d6d4 133e
00000350: e144 c2bd 6b70 44bd 8d17 883c 34d1 f83d
00000360: c515 babd fd6a 163e 19a1 5d3e 43cb edbd
00000370: 9281 97bd f8a6 103b ed30 483e be22 393e
00000380: 22ad bb3d 71b3 63bc 4a31 1a3e 5dfa 753d
00000390: 68e8 7abe 8239 6ebe aa0b a13d 04d5 26bd
000003a0: 0b84 3ebd a699 a3bd 9ed1 71bd 6e74 21be
000003b0: bf5e bf3d 9120 b23d 301b 073d 9941 d93d
000003c0: 8017 553e 5ab8 4abd 6871 903d c985 3c3d
000003d0: 2d56 87bd 316c b3bd 84c3 233e 091d 933d
000003e0: db9a 4b3d 7e27 873d d339 13bd fbc1 913b
000003f0: 2f1a 41be 1710 febd 41c0 90bc 753e 78bd
-0.041008677 -0.08137311 0.22219038 0.18094684 -0.008301722 0.13788588 0.27374834 0.08776687
-0.014332718 -0.25728 0.0032229442 -0.17962033 -0.152971 -0.14567283 -0.057345007 -0.19495621
-0.10643056 -0.06975014 -0.29872745 -0.36696532 0.03262857 -0.2504162 0.03319399 -0.180542
-0.22772443 -0.05237292 -0.06711168 -0.21547462 -0.28127098 -0.36159608 -0.079713695 -0.049064524
-0.22321135 -0.23497091 -0.25517884 0.0038458763 -0.011943144 -0.14721772 -0.44076917 -0.54818135
0.059435904 -0.030746117 -0.11804891 -0.2997481 0.0324392 0.030531364 -0.002173571 -0.22836982
-0.15338518 -0.15498425 -0.052912377 0.112065576 0.13566546 -0.18276204 -0.06435904 0.061132554
0.05327798 0.066382706 -0.080865815 -0.086524 -0.18402424 -0.15845026 -0.46506244 -0.21204402
-0.2984396 -0.27255666 -0.080010876 -0.11856947 -0.27014744 -0.3909749 0.14994478 -0.10894052
0.03409559 -0.09165591 0.03589841 -0.026860623 0.16247295 -0.21394014 -0.15605809 -0.47132248
-0.06456215 -0.06810705 -0.060602963 -0.068669364 -0.1193372 0.09059619 -0.06930133 0.07706086
0.013999344 0.0414958 0.054649197 0.031847645 -0.012588199 0.047553193 0.09294819 0.047423996
0.09801901 -0.25340924 -0.21754447 -0.27905047 0.12465581 -0.26136228 0.03603583 0.0895844
0.029877566 0.1384111 -0.032138474 0.0633644 -0.1386016 -0.114523366 -0.019721057 0.46811205
0.1966746 -0.1049791 -0.08720684 -0.0629524 -0.23218219 0.11971902 -0.07323863 -0.10972734
0.23907292 0.19724199 0.13721251 0.18077499 -0.018087916 -0.056968704 0.05574802 0.06326581
0.231976 0.23913163 -0.096267305 -0.18792515 -0.29621482 -0.035866387 -0.19283593 -0.17412986
-0.118843056 0.0021612374 0.033998694 0.26782292 -0.23403926 -0.34977588 -0.12044403 -0.3512087
-0.29589447 -0.23940197 -0.11188123 -0.21550864 -0.27534094 -0.30256432 -0.31802055 -0.13437757
-0.16941057 -0.2786161 -0.19833696 -0.17137034 -0.022409135 0.040341232 0.02457001 0.48940638
-0.12603958 -0.07388346 -0.04914796 -0.030441318 -0.12557547 -0.12537274 -0.13499272 0.07114453
-0.10066346 0.0773193 0.018935168 -0.2154744 -0.023867523 -0.073860094 0.018705731 0.10309158
-0.09799268 0.13890696 0.042203695 0.09326543 -0.09024971 -0.19749562 0.042741995 -0.21250843
-0.06745991 -0.14484437 -0.07010937 -0.005666734 -0.04822094 -0.1672355 0.14820433 0.08151638
-0.03453482 0.0697788 0.15326051 0.18926278 0.16235076 0.1400822 0.065737985 0.06689205
0.018691517 -0.04155149 0.03830571 -0.014719593 0.09173786 0.18851258 -0.022385987 0.07774866
0.20764801 0.025547829 0.03445815 0.14436659 -0.09485794 -0.047958773 0.016612792 0.12149277
-0.090861835 0.1468925 0.21643485 -0.11611035 -0.073977605 0.0022072177 0.19549914 0.1807966
0.09163882 -0.013897763 0.15057865 0.06005322 -0.24502718 -0.23264125 0.07863553 -0.04073049
-0.046512645 -0.079882905 -0.059037797 -0.1576707 0.09344243 0.08697618 0.032984912 0.10608215
0.20809746 -0.049492218 0.070528805 0.046026025 -0.066082336 -0.0876087 0.15992552 0.071832724
0.04970823 0.065993294 -0.035943817 0.004448173 -0.18857644 -0.12405413 -0.017669799 -0.06060644

conv1.conv.bias f4 [16]
00000000: c3ad 163d 4a8d 0f3f 7ab5 59be 27a2 963c
00000010: 349a 513c 28e9 10bf 05b1 0a3c dec6 763e
00000020: 4aae bc3d df30 17be 077f 093d 4e94 06be
00000030: e380 36bd fe6c f3bd fb10 e8bd 548d 583d
0.036786806 0.56074965 -0.21260634 0.018387867 0.012793113 -0.5660577 0.008465056 0.240993
0.092129305 -0.14764737 0.03356841 -0.13142511 -0.04455651 -0.11886023 -0.11331364 0.052869156

conv2.conv.weight f4 [1, 16, 1]
00000000: e5fb 7cbe 9c43 053f 62e1 653e 49a5 6cbd
00000010: d004 12be e34e 0a3f d238 a63e 9a24 12bf
00000020: fbfc d1be b046 6dbe 37c3 a9bd 7e98 133e
00000030: 21e0 1a3f d51a 8b3e 1e2c 1a3e 0bfb 42be
-0.24705465 0.5205629 0.22449258 -0.057774816 -0.14259648 0.5402662 0.32465225 -0.570871
-0.4101332 -0.23171496 -0.082891874 0.1441364 0.60498244 0.2716891 0.15055892 -0.19041078
