results/14306500/14306500_common.pth (torch, 5071 bytes, 3 tensors)

conv1.conv.weight f4 [16, 5, 10]
00000000: 6750 03be da4e f23d a7d1 07be 4ce0 063e
00000010: 8693 a5bc 9b44 e53d 5853 04bd d228 113e
00000020: d2c2 2d3e db2f 8c3e ce1b 443c b0ff 15be
00000030: 0f7a cb3d b245 31bc d183 e6bc 88bc 9c3d
00000040: 63b2 9438 cc0d d2bc 84be a93d a31d 10bd
00000050: 78be 00bd d6cf e6bd f657 dd3c 2c82 f3bd
00000060: 5bdd 1bbe 380b eb3c 5bd3 0e3e f467 01bd
00000070: 73a3 393d 80b4 d23d c047 0fbe 9b85 6b3c
00000080: 88b1 26bd 8bb0 2cbc ed3d a6bc 7895 d83d
00000090: d9cf e53c d51c 183d de09 3c3e 017d d53b
000000a0: 069f 32be 4e8c 13bb 4165 043e d519 133e
000000b0: 707e 0c3e 8417 d33d f313 533d a0ab 983d
000000c0: ee80 1f3e 1555 8dbd 4413 083d fe91 b93d
000000d0: c780 ef3d 8c21 9d3c 879a 903c cb6d a2bd
000000e0: 6faf 423e ba73 153d f251 983e c08e b43e
000000f0: a6b1 9ebe bbdd 823b 3f6c 89bd 209e f5bd
00000100: 1e05 673d 4863 59bd f8a8 093d 3b42 5cbe
00000110: c871 a23d c7fb 4a3d 8fda 8ebe 9acf 27be
00000120: 5321 a9be c4b4 babb d8b5 95be 3669 59be
00000130: 4a6c 553d 0af3 3cbe c6be 073d 9c15 bd3d
00000140: aab2 5cbe aa72 4e3d feb5 76be 56c2 0f3d
00000150: 1b08 993c 2afe 99bd 2a0f d0bd 290d 953d
00000160: 3a4d d4bd ed32 1d3e c0a7 4abe eef8 b13d
00000170: deaa 4a3b 3eaa 8dbc 7641 89bd 689d ebbd
00000180: c31f aebd 9d02 083c 0c0c 8c3d ab26 163c
00000190: 453a f33d 6549 8e3d e7f6 eebd a99d 0a3c
000001a0: ca45 2a3d 9e9b ccbd ee00 c3bd b9e6 c73d
000001b0: 8300 1e3d 84b2 68be faf7 ec3d 0cff b0bc
000001c0: bf4c 2fbd 13db 14be c6a1 80bc edc5 efbd
000001d0: 7910 a4bd d682 0f3d 2c37 01be b50c f3bd
000001e0: 1311 d73d 6465 a33c 0d0e 0cbe f7df 09be
000001f0: 1155 773d 389e 273e c3d5 88bd 3704 0c3e
00000200: 9b55 88bd 8e55 79bd a56c 03be fd6c bdbd
00000210: f37a cfbd dd75 38bd 4a66 5bbd 629d 31be
00000220: e9a2 9a3d 0e28 00be 9290 0abe fd2f 95bd
00000230: b08d 1a3e bc16 b0bd ab86 573d 9929 bd3d
00000240: 42db 153d 98ef f4bd 4d7a 313d 47af 16bd
00000250: fa17 0abe 73b1 63bd 0b73 d13d 9426 243d
00000260: 876b 18be 1a8c 2dbe bcf1 0cbe 2421 053e
00000270: 569c f33d 8d6f 153e d574 973c fd07 7ebc
00000280: 0ae7 3b3e 10ad 91bd a462 273b 714f 1b3e
00000290: c22e b23b 2830 643e cc37 5a3e cfea 643d
000002a0: 82fb 1dbc 2235 0d3e 6172 063e 1d17 3d3d
000002b0: c0ce 813d 9f1f 19bd 7ba4 333e 6b89 1dbe
000002c0: 44d1 a5bd b0db 2ebe c7ad d33b 4e6e 453c
000002d0: cbc2 bfbc d953 133e 2d62 f2bd 210c 86bc
000002e0: cbf6 1dbe 010e 16be 93ab d63c 599a 55bd
000002f0: ea34 45be d0fd da3c be04 5f3d 1a66 be38
00000300: efed ba3d 8611 2bbd 5a23 233e d6b0 1c3d
00000310: 6200 a1bb 10be 4dbd 5ed7 04be 35c9 4a3d
00000320: 2ebf d3bd 525a 093d 57b8 9d3c d7de d2bd
00000330: 2a82 d0bd ad5c 953c 06a2 d0bd ccb1 563b
00000340: 40dc acbd 0c59 82bc 134f c03d f324 813d
00000350: 3540 dabd c2f5 e6bd dd88 4dbd 2e5b 293d
00000360: 693c 283e 7035 e03c faf9 b13d d066 11be
00000370: 30a6 9fbd dc74 e2bc 4e9e 0f3e 3f4a 133e
00000380: 8de0 be3b d83c ffbd ef78 bbbd 9380 15be
00000390: 7541 dcbd b1cf 4abe d936 25be 995a 26bc
000003a0: 5b0b 7f3c 450b 14be be61 a43c de38 05be
000003b0: eaab 27be 8185 61bd 2268 f3bc d176 6bbe
000003c0: fab4 12be d372 9f3d e22c 173e 21e4 f53d
000003d0: 36cc 053e de13 fdbd baac 413d 4ec3 a2bd
000003e0: f489 cd3c aecb 02be 6afa 85ba db56 cfbd
000003f0: 6c76 cdbd c349 ecbc 2f7f c43a eb1e e53b
-0.1282364 0.11831446 -0.1326357 0.131715 -0.020211946 0.11194726 -0.032306045 0.14175728
0.1696885 0.2738026 0.01196952 -0.14648318 0.0993539 -0.010819839 -0.028139027 0.07653147
7.090417e-05 -0.025641344 0.08288291 -0.035184514 -0.031431645 -0.1127011 0.027019482 -0.11890063
-0.15221159 0.028691873 0.13947813 -0.031593278 0.045321893 0.10288334 -0.13992214 0.014375116
-0.04069665 -0.010540138 -0.0202932 0.10575384 0.028053211 0.03713687 0.18363139 0.006515146
-0.17443475 -0.0022514048 0.1292925 0.14365323 0.13720107 0.103072196 0.051532697 0.0745461
0.15576527 -0.06900994 0.033221498 0.09061049 0.11694484 0.019181035 0.01765181 -0.079310976
0.19012235 0.03648732 0.2975002 0.3526516 -0.3099491 0.0039937175 -0.067100994 -0.119930506
0.056401365 -0.053073198 0.033608407 -0.2150964 0.07931858 0.04955652 -0.27901122 -0.16387787
-0.33033237 -0.0056978185 -0.29240298 -0.21231541 0.052105226 -0.18452087 0.03314092 0.09232637
-0.2155253 0.05040232 -0.24092862 0.035097443 0.018680623 -0.07519181 -0.10159142 0.07277901
-0.10366292 0.15351458 -0.19790554 0.08690058 0.0030924599 -0.017293092 -0.06701939 -0.11504632
-0.08502152 0.008301404 0.06838235 0.009164493 0.118763484 0.06947593 -0.11668187 0.008460441
0.041570462 -0.09990619 -0.09521662 0.09760804 0.038574707 -0.22724348 0.11570735 -0.02160599
-0.0427978 -0.14536695 -0.01570214 -0.11707673 -0.080109544 0.035036884 -0.12618703 -0.11867658
0.105013035 0.019945808 -0.13677235 -0.13464342 0.06038386 0.1636895 -0.06681397 0.13673483
-0.06656953 -0.060872607 -0.12834413 -0.092493035 -0.101308726 -0.04503428 -0.053564347 -0.17345193
0.07550604 -0.1251528 -0.13531712 -0.07284544 0.15093112 -0.08598086 0.052618664 0.0923645
0.036586054 -0.119597614 0.043329526 -0.03678825 -0.13485709 -0.05558915 0.10227021 0.040075853
-0.14884768 -0.16947976 -0.1376409 0.13000923 0.11895053 0.14593334 0.018488327 -0.015504834
0.18349853 -0.07113087 0.0025540972 0.15167023 0.005437703 0.22283995 0.21310347 0.055887993
-0.009642484 0.137898 0.1312957 0.04616462 0.063382626 -0.03738367 0.17543213 -0.15384452
-0.08096555 -0.17075992 0.006459925 0.0120502245 -0.023408314 0.14387454 -0.11835132 -0.016363205
-0.15426175 -0.1465378 0.02620486 -0.05214915 -0.19258466 0.026732355 0.054447882 9.078924e-05
0.091274135 -0.04176476 0.15931454 0.03825458 -0.0049133757 -0.050230086 -0.12972781 0.049508292
-0.10339199 0.0335334 0.01925294 -0.102964096 -0.10181077 0.018232668 -0.101871535 0.0032759784
-0.08440447 -0.015911601 0.09390082 0.06305876 -0.10656778 -0.11277343 -0.05017935 0.04134672
0.16429295 0.027369231 0.08690257 -0.14199376 -0.077953696 -0.027643614 0.14025232 0.14383791
0.0058251084 -0.12462777 -0.091539256 -0.14599828 -0.107546724 -0.1980579 -0.16134204 -0.010153436
0.015566672 -0.14457424 0.020066138 -0.13009974 -0.16374174 -0.05505896 -0.02971274 -0.22994544
-0.1432685 0.07785573 0.14763215 0.12006403 0.13066182 -0.12357305 0.047283866 -0.07947408
0.025090195 -0.1277301 -0.0010221724 -0.10123988 -0.10032353 -0.028843766 0.0014991517 0.006992211

conv1.conv.bias f4 [16]
00000000: c4ae 96bd b9e5 15be 0138 863d ec14 e13c
00000010: 4837 6c3d b64e 89bd f66b 893d a62d 97bd
00000020: 9fb0 203d ceb2 573d 02d3 963d 686e b5bd
00000030: dd8a 3a3d f703 4d3d 2733 8a3d 14b2 90bd
-0.07357553 -0.14638413 0.06553651 0.027475797 0.057669908 -0.06704466 0.06710045 -0.073817536
0.03923094 0.052660756 0.07364465 -0.08858949 0.045542587 0.05005261 0.06748038 -0.07065216

conv2.conv.weight f4 [1, 16, 1]
00000000: 7ae6 f83e f60e 013e 61dd acbe cbf5 b0be
00000010: f1b2 8cbe 04ad f33e 8222 4bbd b44d eb3e
00000020: a51a 7bbe 7b38 24be 93b8 bcbe 2ba1 b53e
00000030: 2def 2abe e7bc 95be 326c afbe bbdf f93d
0.4861334 0.12603363 -0.3376265 -0.34562525 -0.2748027 0.47592938 -0.049593456 0.4595772
-0.24521883 -0.1603717 -0.3685957 0.35474524 -0.16692801 -0.29245684 -0.34262234 0.12200876
